p1_navigation/checkpoint_dqn.pth (torch, 108015 bytes, 6 tensors)

model.0.weight f4 [256, 37]
-0.06051312 0.08970963 -0.03537529 0.10164493 -0.07653582 0.29707587 -0.12592684 -0.14696789
-0.4606884 -0.6808976 0.3095177 -0.3536683 -0.06706654 -0.13530734 -0.37861982 0.39259306
0.043967288 -0.06145136 -0.20119947 -0.20064762 -0.5685923 0.37670228 0.3617212 0.0998983
-0.22785157 -0.70837927 0.06855585 0.46993482 0.07254732 -0.53890276 -0.018080672 0.16036247
-0.114172556 0.16846383 -0.25858292 -0.056189157 -0.0050700055 0.3436996 -0.12688515 0.00049284747
0.14665887 -0.6980934 -0.05766909 -0.11178897 -0.1622592 0.13143137 -0.28027877 -0.11579915
-0.02965909 0.096080795 0.03349995 0.2090402 0.36616057 -0.26563558 0.097026154 0.041409377
-0.41710034 -0.26609468 0.18878478 -0.18927015 -0.0551697 0.12403648 -0.13845211 0.025326207
0.31007266 -0.11587586 -0.20104177 -0.10584413 0.0909284 0.3195062 -0.21210015 -0.21692182
-0.121358015 -0.0027922597 0.12140544 -0.041414194 -0.8844495 -1.2933846 -0.10960139 0.09494309
-1.1292512 -1.3349338 0.061721373 0.030596148 -0.24913046 -1.048197 -1.2871699 -0.13419461
-0.40891019 -1.0030113 -0.4455111 0.3861748 -0.98397386 0.3459694 -0.7680038 -0.65495807
0.012921832 -0.017507289 -1.1234123 -1.4308504 -0.06486488 -0.18158062 -0.2883745 -0.43807495
-1.1238453 -0.07204701 -0.4384589 -0.03832369 -1.0578808 -0.19843943 -0.22681239 0.47168574
-0.22151484 0.36708704 -0.1699104 -0.8277488 -0.26768565 0.1877824 0.2993981 0.25062132
0.44705373 -0.08808683 -0.02496567 0.18955968 0.25202453 -0.20864286 0.18774879 -0.053875923
-0.1911713 -0.14275165 -0.2730089 0.22490034 -0.050364792 -0.26092115 0.37625006 -0.03853185
0.16273288 -0.08106194 0.13600945 0.24006307 0.05994252 0.4933233 0.17141676 -0.6017489
-0.33975697 -0.6783314 -0.17690215 -0.02451901 -0.062115215 -0.3821995 -1.5224189 -0.51421106
-0.12912464 -0.48888835 0.0014325283 -0.32530272 -0.3466704 -1.2160356 -1.1433077 -0.10380605
0.32024148 -1.494016 -1.5477847 -1.1155275 0.097038046 -0.1574176 -0.5648654 0.4020334
-1.2128472 -0.89532024 0.5255439 -0.7383909 -0.438095 -0.9213747 -1.269896 0.4630686
-0.26488096 -0.17405336 0.43112817 -0.986416 -0.1302032 -1.1493416 -0.7653346 -0.18835711
0.033895407 0.005886177 -0.109982364 0.01730603 0.035055377 0.12561765 0.12579669 0.015460283
0.084296554 0.19051191 0.02952193 -0.03005239 0.05301085 -0.0033279604 -0.0414804 0.023791803
-0.038409654 0.10404146 0.162982 0.03568462 0.11135229 0.05409898 0.045408092 0.09283494
0.21540956 0.15689999 -0.14927247 0.13878967 0.08156131 0.29145515 0.45893362 0.6416791
-0.29788995 -0.7296168 -0.68669885 -3.4067235 0.058479365 0.006343816 0.011524972 0.19839615
-1.2145201 -0.17961271 0.0313606 -0.18956512 0.30762288 -1.053493 -0.4076017 0.16993652
0.3872775 0.12483199 -0.7447349 -0.87456447 0.20232546 0.00720888 -0.7093074 0.14121789
-0.45437944 0.36512864 -0.35804027 -0.14536445 0.1389376 -0.45037305 0.054519914 0.06064684
-0.29931182 -0.5189727 -0.35313782 -0.25389487 -0.55131394 -0.036590993 -0.08297852 -0.05377959
00000000: 9bdc 77bd afb9 b73d aee5 10bd 382b d03d
00000010: d0be 9cbd 541a 983e f7f2 00be c07e 16be
00000020: 5adf ebbe 4e4f 2ebf 1b79 9e3e 0314 b5be
00000030: 2f5a 89bd 028e 0abe 75da c1be f501 c93e
00000040: 0b17 343d 6cb4 7bbd 3c07 4ebe 9276 4dbe
00000050: 448f 11bf 1fdf c03e 8533 b93e 7b97 cc3d
00000060: ec51 69be 5858 35bf 0267 8c3d 4c9b f03e
00000070: b093 943d 88f5 09bf eb1d 94bc 0f36 243e
00000080: 4dd3 e9bd c881 2c3e fb64 84be 9a26 66bd
00000090: 4a22 a6bb 65f9 af3e 2eee 01be 6f32 013a
000000a0: be2d 163e 40b6 32bf 6c36 6cbd 9ef1 e4bd
000000b0: 4727 26be f295 063e b380 8fbe 1b28 edbd
000000c0: 9ff7 f2bc 02c6 c43d 3e37 093d a20e 563e
000000d0: 6679 bb3e 6301 88be a6b5 c63d e19c 293d
000000e0: 2d8e d5be 903d 88be cc50 413e 09d0 41be
000000f0: a0f9 61bd d706 fe3d 64c6 0dbe e878 cf3c
00000100: d8c1 9e3e 5350 edbd e5dd 4dbe cfc4 d8bd
00000110: ab38 ba3d 5196 a33e c830 59be c120 5ebe
00000120: 8d8a f8bd 58fe 36bb 6aa3 f83d eea1 29bd
00000130: 486b 62bf a08d a5bf b276 e0bd 8671 c23d
00000140: 4e8b 90bf 1cdf aabf 8dcf 7c3d c6a4 fa3c
00000150: 0e1c 7fbe 522b 86bf fcc1 a4bf 506a 09be
00000160: ad5c d1be ad62 80bf 081a e4be b4b8 c53e
00000170: b6e5 7bbf e722 b13e e69b 44bf 55ab 27bf
00000180: 17b6 533c 726b 8fbc f9cb 8fbf 1b26 b7bf
00000190: e1d7 84bd 45f0 39be d3a5 93be 5c4b e0be
000001a0: 2ada 8fbf 628d 93bd af7d e0be 4df9 1cbd
000001b0: a368 87bf b533 4bbe 8241 68be cb80 f13e
000001c0: c9d4 62be d5f2 bb3e fefc 2dbe 58e7 53bf
000001d0: 180e 89be 084a 403e b54a 993e 7051 803e
000001e0: 3ae4 e43e de66 b4bd ce84 ccbc ef1b 423e
000001f0: 5c09 813e 79a6 55be 3841 403e 00ad 5cbd
00000200: 69c2 43be 7d2d 12be d3c7 8bbe 464c 663e
00000210: 504b 4ebd 7597 85be d9a3 c03e 93d3 1dbd
00000220: 73a3 263e cd03 a6bd 1046 0b3e 18d3 753e
00000230: 4a86 753d df94 fc3e e087 2f3e 370c 1abf
00000240: a0f4 adbe 20a7 2dbf d625 35be 17dc c8bc
00000250: 866c 7ebd a7af c3be 9fde c2bf 56a3 03bf
00000260: 4039 04be 934f fabe acc3 bb3a 148e a6be
00000270: c87e b1be 0ea7 9bbf e857 92bf 4498 d4bd
00000280: b1f6 a33e eb3b bfbf cf1d c6bf 9bc9 8ebf
00000290: e2bb c63d 1432 21be 059b 10bf 52d7 cd3e
000002a0: 943e 9bbf b533 65bf 0c8a 063f 3007 3dbf
000002b0: fd4d e0be 36df 6bbf f48b a2bf 5417 ed3e
000002c0: 7a9e 87be 0b3b 32be d5bc dc3e c285 7cbf
000002d0: fd53 05be a01d 93bf f8ec 43bf b0e0 40be
000002e0: e9d5 0a3d d5e0 c03b 6f3e e1bd 60c5 8d3c
000002f0: 3a96 0f3d eaa1 003e d9d0 003e 204d 7d3c
00000300: aca3 ac3d 8e15 433e f9d7 f13c 6e30 f6bc
00000310: e821 593d e919 5abb 5ae7 29bd 07e7 c23c
00000320: 7153 1dbd b013 d53d c1e4 263e 092a 123d
00000330: ab0c e43d e496 5d3d d6fd 393d 3f20 be3d
00000340: 5394 5c3e 64aa 203e e2da 18be e11e 0e3e
00000350: 9e09 a73d 9c39 953e 59f9 ea3e 1545 243f
00000360: 0885 98be 2bc8 3abf 7fcb 2fbf c207 5ac0
00000370: 0f88 6f3d c9df cf3b 3cd3 3c3c 5c28 4b3e
00000380: 6575 9bbf 65ec 37be f973 003d 5c1d 42be
00000390: bf80 9d3e dcd8 86bf 2cb1 d0be d703 2e3e
000003a0: 3d49 c63e eaa7 ff3d f2a6 3ebf 75e3 5fbf
000003b0: 682e 4f3e 7838 ec3b 2b95 35bf 6c9b 103e
000003c0: 6ca4 e8be 24f2 ba3e 0e51 b7be 6bda 14be
000003d0: a945 0e3e 4c97 e6be 4650 5f3d d268 783d
000003e0: 663f 99be 65db 04bf 7bce b4be 82fe 81be
000003f0: e922 0dbf 70e0 15bd a4f0 a9bd fd47 5cbd

model.0.bias f4 [256]
-0.28572002 -0.04466244 -0.011231717 -0.10448097 0.21942142 -0.0061984174 -0.14335932 -0.094143726
0.039791238 -0.10770969 -0.22099265 -0.02044031 -0.43772042 -0.24391054 -0.5228893 -0.19747004
0.15985884 0.027267305 0.25832248 0.06276182 -0.07746514 -0.08190523 0.12607849 -0.19988966
-0.25385785 -0.14052308 0.20084493 -0.20997322 0.05663986 0.19319586 0.17355745 0.0018018858
-0.0047857068 -0.19581383 -0.084653735 0.033573527 -0.20424372 -0.036476407 -0.3867197 0.013883425
0.105123855 -0.28979987 -0.115540974 -0.118827224 -0.1519393 -0.12677972 -0.24201046 0.15023737
-0.24178346 -0.06041721 0.08091866 0.066798635 -0.25824744 -0.18325014 -0.058073428 -0.33392054
-0.20395254 -0.14593402 -0.04393588 0.18482631 0.22339478 0.010802212 0.091444224 -0.23500594
-0.02460691 -0.22002558 -0.41549623 -0.2750832 -0.26213145 -0.16897888 -0.22162966 0.55790734
-0.21634972 0.2125823 -0.122290134 -0.289795 0.43664303 0.104270004 -0.034298223 -0.1333794
-0.32571283 0.1769538 -0.09929566 -0.25636476 -0.19651541 0.029161157 -0.21076521 0.2963551
-0.1607971 -0.31417215 -0.040714655 -0.25637847 -0.08941353 0.010509558 0.24339639 0.17646246
-0.048581798 -0.13491842 0.034795824 -0.051707167 -0.045234103 -0.36796102 0.07570978 0.27384308
-0.31376094 -0.33295792 0.3850618 -0.10953493 -0.23393734 -0.06954764 -0.0109502515 -0.22310586
0.04458444 -0.19938047 -0.13942808 -0.3761066 -0.26775447 -0.13951793 -0.17330776 -0.10054488
-0.08378789 -0.13370086 -0.2683877 -0.18727654 -0.3127176 -0.31019554 0.13987519 -0.12873214
-0.1603541 -0.12361697 -0.40854105 0.17993116 -0.029021388 -0.13193372 -0.20666212 -0.26622763
-0.073953405 -0.28271356 -0.26554638 -0.25211856 0.30785063 -0.2559941 -0.056665093 -0.2504517
-0.029967124 -0.16800502 -0.16205965 0.1263916 -0.19078778 0.54429567 -0.37218666 -0.02813933
-0.043024477 -0.48470646 0.03705334 -0.09938137 -0.07925328 -0.3662426 -0.18156151 -0.0031267137
-0.19815241 0.29374352 -0.09541563 0.10413114 -0.22107321 -0.24679571 -0.26027605 -0.20146735
-0.014543383 -0.47612885 -0.11246568 -0.32579413 -0.049106885 0.59546995 -0.18171793 -0.1848151
0.07126347 -0.28434506 -0.12193364 0.019037157 0.10825986 -0.25260767 -0.3485713 -0.2967377
-0.17786755 -0.013650754 -0.0058103567 0.016974257 -0.1728332 -0.2545846 -0.41868743 -0.07594697
-0.3206519 0.59461606 -0.13833694 -0.10309332 0.0809277 -0.074749395 -0.20922427 -0.2159541
-0.11861967 -0.30023873 -0.20840055 -0.1221863 -0.2418287 -0.3820811 -0.0050501022 -0.023914961
0.010543547 -0.1726247 -0.2584664 -0.27451807 0.37423754 -0.3436393 -0.15478541 -0.24657308
0.017727 -0.16141573 -0.18750203 -0.012066635 -0.20167306 -0.021319188 -0.17747223 -0.088323444
-0.36343527 -0.09278701 -0.37050858 -0.13891535 -0.047495376 -0.27021745 -0.21540615 -0.06675138
-0.10678564 -0.07589112 0.16288596 -0.34189987 -0.2546765 -0.19518057 -0.17007925 -0.28597173
0.075565875 -0.027692035 -0.45440117 -0.29708195 -0.09254532 -0.15977295 0.24529926 -0.10819552
0.18828335 -0.08320129 0.20218568 -0.46141726 -0.319621 0.086355664 -0.24516436 0.088590205
00000000: e549 92be f6ef 36bd 3c05 38bc 1efa d5bd
00000010: 02b0 603e 181c cbbb c9cc 12be 6dce c0bd
00000020: 23fc 223d e696 dcbd e64b 62be 7072 a7bc
00000030: e41c e0be afc3 79be 13dc 05bf 9635 4abe
00000040: 09b2 233e af5f df3c d842 843e 4589 803d
00000050: 0ba6 9ebd eebd a7bd b81a 013e e0af 4cbe
00000060: a8f9 81be 48e5 0fbe 4baa 4d3e 3803 57be
00000070: 33ff 673d 23d5 453e 0bb9 313e 412d ec3a
00000080: 6bd1 9cbb 6c83 48be f05e adbd 6584 093d
00000090: 4425 51be 4968 15bd 2000 c6be 4e77 633c
000000a0: 2d4b d73d a660 94be bfa0 ecbd b05b f3bd
000000b0: fa95 1bbe 8bd2 01be 97d1 77be d3d7 193e
000000c0: 1596 77be 0978 77bd afb8 a53d b9cd 883d
000000d0: 0239 84be eda5 3bbe 67de 6dbd a2f7 aabe
000000e0: efd8 50be ba6f 15be 1cf6 33bd 1c43 3d3e
000000f0: 9ac1 643e c3fb 303c 1c47 bb3d 66a5 70be
00000100: 6e94 c9bc 634e 61be ecbb d4be b5d7 8cbe
00000110: 1836 86be cd08 2dbe e3f2 62be 04d3 0e3f
00000120: c88a 5dbe 2daf 593e 4073 fabd 0360 94be
00000130: ad8f df3e 838b d53d 4b7c 0cbd 9c94 08be
00000140: d5c3 a6be 6033 353e 865b cbbd 3e42 83be
00000150: 563b 49be 61e3 ee3c d6d2 57be dbbb 973e
00000160: ffa7 24be 2cdb a0be 69c4 26bd 0a44 83be
00000170: 711e b7bd 4830 2c3c e73c 793e 93b2 343e
00000180: b5fd 46bd 0e28 0abe 1186 0e3d e5ca 53bd
00000190: 6547 39bd 6365 bcbe bb0d 9b3d 2935 8c3e
000001a0: 46a5 a0be 7679 aabe d226 c53e d953 e0bd
000001b0: 458d 6fbe fe6e 8ebd af68 33bc dd75 64be
000001c0: 2c9e 363d 652a 4cbe 3cc6 0ebe 0b91 c0be
000001d0: 1d17 89be cadd 0ebe 9777 31be 79ea cdbd
000001e0: fc98 abbd e1e8 08be 1d6a 89be 6cc5 3fbe
000001f0: 851c a0be f3d1 9ebe 713b 0f3e 5cd2 03be
00000200: dd33 24be e52a fdbd 4b2c d1be e03f 383e
00000210: 43be edbc a219 07be 3c9f 53be fd4e 88be
00000220: e274 97bd d5bf 90be b2f5 87be af15 81be
00000230: 999e 9d3e a911 83be a819 68bd 353b 80be
00000240: 9d7d f5bc 8209 2cbe f7f2 25be cd6c 013e
00000250: df5d 43be f656 0b3f 408f bebe 7484 e6bc
00000260: 6f3a 30bd 722b f8be 3ec5 173d 7688 cbbd
00000270: 8b4f a2bd 2684 bbbe 43eb 39be 8de9 4cbb
00000280: 77e8 4abe 8d65 963e 4569 c3bd b542 d53d
00000290: 0461 62be 04b8 7cbe e742 85be 754d 4ebe
000002a0: 5f47 6ebc 29c7 f3be 6854 e6bd 7dce a6be
000002b0: 4d24 49bd b870 183f 4414 3abe 2b40 3dbe
000002c0: 95f2 913d ad95 91be 58b8 f9bd d0f3 9b3c
000002d0: 58b7 dd3d cb55 81be f077 b2be 01ee 97be
000002e0: e922 36be 69a7 5fbc ce64 bebb 990d 8b3c
000002f0: 30fb 30be ea58 82be 335e d6be 168a 9bbd
00000300: 7c2c a4be c238 183f 33a8 0dbe 9722 d3bd
00000310: 6cbd a53d 3616 99bd e33e 56be 1223 5dbe
00000320: dfee f2bd e4b8 99be f466 55be d03c fabd
00000330: f1a1 77be 22a0 c3be 547b a5bb 4fe9 c3bc
00000340: d7be 2c3c 88c4 30be b555 84be a28d 8cbe
00000350: 109c bf3e 7ef1 afbe 1180 1ebe a77d 7cbe
00000360: 3738 913c 2a4a 25be 8800 40be 23b3 45bc
00000370: 6283 4ebe 94a5 aebc 48bb 35be ece2 b4bd
00000380: 3014 babe 1e07 bebd 4db3 bdbe d33f 0ebe
00000390: 838a 42bd f159 8abe 6e93 5cbe f3b4 88bd
000003a0: 6eb2 dabd ce6c 9bbd 94cb 263e 800d afbe
000003b0: f564 82be 6add 47be 4129 2ebe e36a 92be
000003c0: 48c2 9a3d 68da e2bc 45a7 e8be 201b 98be
000003d0: 6788 bdbd 859b 23be bb2f 7b3e 9d95 ddbd
000003e0: 5acd 403e 7065 aabd c309 4f3e e23e ecbe
000003f0: 5da5 a3be 3ddb b03d 5e0c 7bbe c86e b53d

model.2.weight f4 [64, 256]
-0.60404843 0.1387861 0.13826087 -0.03621849 -0.052285004 -0.37289044 0.037547152 -0.5087551
-0.042756133 -0.37021017 0.105897225 -0.81352025 -0.81308097 -0.6259812 -0.1210724 -0.1467151
-0.7884824 -0.37532836 -0.67341095 -0.230866 0.14889877 -1.0045657 -1.2738918 -0.1978853
0.22188482 -0.2436739 -0.09196593 -0.81712747 -0.079824336 -0.86735874 0.12784125 0.044813834
-0.058990955 -0.37533593 0.19078864 0.25527996 -0.727505 -0.06350579 -0.2249313 0.050310258
-1.5642385 0.15104413 -0.2437181 -0.4279498 -1.1186111 -0.13962485 -0.27189597 0.10472582
-1.3405585 -0.046763036 0.16253556 -0.63031405 -0.5462751 -0.34618828 -1.3830115 -0.5399668
-0.91316605 -0.96076775 0.06450898 -0.1499438 -0.029986404 0.31440163 -0.32788962 -0.31587383
-0.64194274 -0.298044 -0.6040268 -0.005402826 -0.022182167 0.068355195 -0.32199255 -0.15241408
-0.44417906 -0.11725016 -0.1880767 -0.5961414 -0.77240616 0.059514407 -0.4727759 0.37333658
-0.45141557 -0.44085884 -0.15850346 -0.2365934 -0.51000696 0.04602708 -0.3999023 0.08303712
-0.748387 -0.253656 -0.49923366 -0.09186397 -0.094289176 -0.034234185 -0.12853 0.09296948
-0.12722556 -0.04998977 -0.15739825 -0.29333267 -0.03361754 -0.8862547 -0.100034066 -0.23815522
-0.06483209 -0.34917542 -0.023870315 -1.0181272 -0.9007046 -0.30270892 0.21667172 -0.19391936
-0.55750835 -0.20109019 0.3586021 0.045466535 -0.30954227 -0.059831306 -0.09867782 0.21973953
0.18309739 -0.6488735 -0.059716616 -0.09850937 -0.27767816 -0.55289745 -0.42472935 -0.050613094
0.008415765 -0.14595155 -0.5458636 -0.031552546 -0.92397225 -1.5312325 -0.97646385 -0.049766988
0.25986707 0.16929434 0.31254098 -0.55686855 -1.264895 -0.3785645 0.06957133 -0.5778165
-0.78196174 -0.11288144 -0.56992775 -0.17244144 -0.11061636 0.27160883 -0.3700572 -0.41855678
-0.15286878 -0.5193994 -0.5809927 0.13257669 -0.0063671344 -1.0385805 -0.0053814184 -0.34808055
-0.11122257 0.11882136 -0.07101634 0.017415501 -0.3076859 -0.04781293 -0.03202232 -0.29499188
-0.50984114 -0.71199113 -0.18532528 -0.3262543 -0.65628934 0.05965647 -0.877241 0.1994683
-0.012768666 -0.19457878 -0.015234835 0.085654296 0.21924603 -0.31906724 -0.47396225 0.2629653
-0.41392982 -0.43742543 -0.5271031 0.10426337 -0.7135645 -0.43327823 -1.2179129 -0.38510466
-0.29825655 0.076005675 -0.47599116 -0.5230921 -0.060847264 0.09428782 0.008143485 -0.10898655
-0.6994225 -0.045228053 -1.1636252 0.06030892 -0.1867756 -0.096933454 0.22057348 -1.1237347
0.19913308 -1.493912 -0.38352492 -0.61570835 -0.74377626 0.24934407 0.12028288 -0.22695994
-0.06637244 -0.46093446 -0.98474026 0.059696883 -0.75506854 -0.1311334 0.020079795 -0.66242296
-0.09176716 0.10281113 -0.621786 -0.005079252 0.17751366 0.122955374 0.0860492 -0.6833333
-0.057130087 -0.3492034 0.007542401 -0.8126332 -0.39687574 0.29123747 0.36400372 0.18986331
-0.11040032 -0.6138454 -0.29862234 -0.42635432 -0.16187353 0.13432868 -0.27663183 -1.0965326
0.07241144 -0.6612524 0.08216964 -0.3910421 -0.7293182 -0.06789638 -0.16562442 -0.042921852
00000000: eba2 1abf f21d 0e3e 4294 0d3e d759 14bd
00000010: cd28 56bd 7feb bebe 0bcb 193d c63d 02bf
00000020: 0e21 2fbd 308c bdbe a5e0 d83d dd42 50bf
00000030: 1326 50bf 4e40 20bf cef4 f7bd 7c3c 16be
00000040: fcd9 49bf 0a2b c0be a964 2cbf 2368 6cbe
00000050: eb78 183e 9c95 80bf e30e a3bf 72a2 4abe
00000060: c635 633e a785 79be a258 bcbd 442f 51bf
00000070: f17a a3bd 390b 5ebf d1e8 023e b68e 373d
00000080: 80a0 71bd 082c c0be 195e 433e 0eb4 823e
00000090: c53d 3abf 530f 82bd 6454 66be 2112 4e3d
000000a0: f838 c8bf 50ab 1a3e 3d91 79be 3c1c dbbe
000000b0: a62e 8fbf d1f9 0ebe f335 8bbe 7e7a d63d
000000c0: 6c97 abbf 998a 3fbd b96f 263e 435c 21bf
000000d0: afd8 0bbf 973f b1be 8506 b1bf 443b 0abf
000000e0: 40c5 69bf e0f4 75bf 491d 843d de8a 19be
000000f0: 0ca6 f5bc 40f9 a03e 26e1 a7be 37ba a1be
00000100: 5c56 24bf 3999 98be 80a1 1abf 300a b1bb
00000110: 60b7 b5bc cffd 8b3d 35dc a4be 7012 1cbe
00000120: 706b e3be da20 f0bd 2e97 40be b99c 18bf
00000130: 69bc 45bf 61c5 733d af0f f2be f925 bf3e
00000140: f11f e7be 40b8 e1be bb4e 22be 8a45 72be
00000150: d18f 02bf e486 3c3d ffbf ccbe 5e0f aa3d
00000160: 4a96 3fbf 33df 81be 8e9b ffbe 2d23 bcbd
00000170: af1a c1bd 2539 0cbd 5e9d 03be c866 be3d
00000180: 6b47 02be 13c2 4cbd 022d 21be b32f 96be
00000190: 8cb2 09bd 97e1 62bf a9de ccbd f6de 73be
000001a0: b0c6 84bd 1fc7 b2be ae8b c3bc fe51 82bf
000001b0: 9494 66bf aafc 9abe 31df 5d3e cc92 46be
000001c0: deb8 0ebf 96ea 4dbe b29a b73e 1e3b 3a3d
000001d0: 537c 9ebe ac11 75bd 9917 cabd 6603 613e
000001e0: e27d 3b3e 931c 26bf 6999 74bd 48bf c9bd
000001f0: d52b 8ebe b08a 0dbf 2076 d9be ad4f 4fbd
00000200: 47e2 093c 5374 15be b8bd 0bbf 3e3d 01bd
00000210: 7289 6cbf 6dff c3bf 89f9 79bf 78d8 4bbd
00000220: 4c0d 853e 7f5b 2d3e 5f05 a03e f08e 0ebf
00000230: 14e8 a1bf 35d3 c1be 6a7b 8e3d c8eb 13bf
00000240: a52e 48bf 622e e7bd c9e6 11bf 7d94 30be
00000250: d58a e2bd 5010 8b3e 2378 bdbe 134d d6be
00000260: a289 1cbe 5cf7 04bf f0bb 14bf 2fc2 073e
00000270: 65a3 d0bb 35f0 84bf 9c56 b0bb 9d37 b2be
00000280: a9c8 e3bd 9d58 f33d 0471 91bd f4aa 8e3c
00000290: 0289 9dbe 7ed7 43bd d629 03bd 2d09 97be
000002a0: f384 02bf 0d45 36bf e9c5 3dbe ce0a a7be
000002b0: 9402 28bf 585a 743d de92 60bf 6b41 4c3e
000002c0: ab33 51bc a93f 47be 889b 79bc 856b af3d
000002d0: 0882 603e c85c a3be 2eab f2be 63a3 863e
000002e0: 9cee d3be 3af6 dfbe 3bf0 06bf 0988 d53d
000002f0: 2aac 36bf a5d6 ddbe 92e4 9bbf 702c c5be
00000300: 15b5 98be dda8 9b3d 1db5 f3be 5de9 05bf
00000310: fb3a 79bd f919 c13d 406c 053c 5734 dfbd
00000320: 5a0d 33bf 0d41 39bd acf1 94bf 7c06 773d
00000330: 1a42 3fbe 0c85 c6bd 04de 613e 8ad6 8fbf
00000340: 8be9 4b3e 8238 bfbf 615d c4be 109f 1dbf
00000350: 1f68 3ebf 0d54 7f3e df56 f63d 3068 68be
00000360: 46ee 87bd 9aff ebbe f017 7cbf b884 743d
00000370: 2c4c 41bf d647 06be 627e a43c 8d94 29bf
00000380: 6cf0 bbbd a48e d23d 5e2d 1fbf db6f a6bb
00000390: 24c6 353e 07d0 fb3d 903a b03d eeee 2ebf
000003a0: 3d01 6abd caca b2be 3f26 f73b bb08 50bf
000003b0: 4c33 cbbe 141d 953e b25e ba3e 876b 423e
000003c0: 9019 e2bd f924 1dbf 07e5 98be 1d4b dabe
000003d0: 2dc2 25be 758d 093e b0a2 8dbe 2e5b 8cbf
000003e0: 734c 943d d647 29bf 8e48 a83d ac36 c8be
000003f0: 99b4 3abf 420d 8bbd 7399 29be d3ce 2fbd

model.2.bias f4 [64]
0.04518247 -0.004519035 0.0061352113 -0.09076218 0.15857962 0.26206046 -0.05295899 -0.016748752
-0.040080033 0.51125836 -0.059964355 -0.0006764875 0.12171091 -0.044066574 0.16982357 0.011100276
-0.085529916 0.8402776 0.51302296 -0.10081051 -0.036906693 -0.049008314 -0.058933996 0.15419938
-0.044902205 -0.21447541 -0.03858564 0.83986014 -0.010150905 0.47010607 -0.100344084 0.49493176
-0.06801472 -0.03199927 0.097075365 -0.018017296 -0.049539804 -0.11257096 0.024877539 -0.0622786
0.02498012 -0.09309481 -0.040433023 0.018783351 0.22075903 -0.06934963 -0.046072707 -0.09180316
-0.055960603 0.004331298 -0.028288035 0.11929097 -0.020900112 0.38289115 -0.004714347 0.13070717
-0.0012816415 -0.00013806402 0.029816618 0.29368073 0.17644793 -0.04205702 -0.07196843 0.10612721
00000000: 4111 393d 6a14 94bb e209 c93b 86e1 b9bd
00000010: b262 223e ca2c 863e 87eb 58bd ae34 89bc
00000020: f62a 24bd d4e1 023f 2f9d 75bd 4f56 31ba
00000030: 9243 f93d 277f 34bd 3be6 2d3e efdd 353c
00000040: 4f2a afbd 6f1c 573f 7955 033f be75 cebd
00000050: 792b 17bd f1bc 48bd c664 71bd 71e6 1d3e
00000060: 60eb 37bd 719f 5bbe fa0b 1ebd 1301 573f
00000070: fb4f 26bc beb1 f03e 3381 cdbd b267 fd3e
00000080: 4d4b 8bbd ab11 03bd 73cf c63d 0299 93bc
00000090: 40ea 4abd 9a8b e6bd fbcb cb3c d817 7fbd
000000a0: 1ca3 cc3c 7ea8 bebd 199d 25bd 8bdf 993c
000000b0: a80e 623e 2e07 8ebd bcb6 3cbd 4c03 bcbd
000000c0: f236 65bd 90ed 8d3b 4fbc e7bc d34e f43d
000000d0: b636 abbc 4f0a c43e cf7a 9abb 1ad8 053e
000000e0: c1fc a7ba 47c5 10b9 fb41 f43c 525d 963e
000000f0: c4ae 343e fb43 2cbd 2f64 93bd 3959 d93d

model.4.weight f4 [4, 64]
0.0029525883 0.016903253 0.028529443 -0.029758466 -0.16658893 0.0983535 -0.97367054 0.014220285
0.008557295 -0.012515564 -0.048960384 -0.055843137 -0.98399484 0.038266167 0.11979334 0.04343348
-0.08045396 0.1820227 -0.00898346 -0.8077386 -0.07896664 0.03224024 0.10309458 0.14106482
-0.0068737464 0.039711956 -0.020598197 0.23647662 -0.03825884 0.04284341 0.0021770312 0.04685225
0.070987694 0.040016815 0.072120994 -0.04960556 -0.03188337 -0.7100334 -0.08336978 -0.021652857
0.07723137 0.020389758 0.037356865 0.01876569 -0.02704123 0.08369037 0.09494293 0.05798058
0.0031072267 0.06570243 -0.102780335 0.025214428 0.051774178 0.03223466 -0.010131584 0.021361625
-0.09677513 -0.05898029 0.048757304 0.16974062 0.06300234 -0.2665843 0.1138549 -0.8204363
-0.64772874 0.073062055 0.068909936 -0.91783994 0.057473324 0.07727379 -0.02797703 -0.093977176
0.018488288 0.08490299 0.13243361 0.16555695 0.05490345 0.33071557 0.094174884 -0.035013348
0.024060698 0.16180529 0.036545146 -0.019278718 -0.07307753 -0.08043533 -0.101351805 0.15253064
-0.49532947 0.03074301 0.015179978 0.26620895 -0.015055804 0.026313445 -0.029212374 -0.4927156
0.26853564 -0.17786066 0.053083967 -0.003695865 -0.7495146 0.07442213 -0.005438848 -0.09022249
-0.008763506 0.009121935 -0.03645655 -0.24474189 0.018848024 0.14369236 -0.055510685 0.010312486
-0.02034208 0.22513126 0.06241019 0.08031256 -0.016599586 -0.030156543 -0.047802247 0.012116093
0.086296886 0.28314856 0.09391571 0.12053845 0.016466537 0.010861807 0.19891332 0.028579107
0.02438845 0.0036450268 -0.06398981 -0.06849889 0.074318744 0.067623846 0.11462574 -0.087869726
-0.13870682 -0.018497096 -0.28349593 -0.21640052 -0.03680101 0.1195043 0.10210993 -0.8979033
0.056688968 0.21971215 0.067710675 -0.08245684 0.05314882 -0.0005985564 0.062288962 0.16336691
0.045704283 0.057224676 0.1639349 0.19125289 0.0517149 -0.07169777 0.10831899 0.036074348
-0.07789011 -0.010173566 -0.029400785 -0.022850705 0.063561514 0.017398281 -0.0806343 0.10081431
-0.85095793 0.06593786 -0.06714954 0.025942804 0.022462396 -0.08249389 -0.04496175 -0.035066552
0.032744776 0.22152157 -0.08060828 -1.2254003 0.06442523 0.065454386 -0.044844653 -1.1038381
-0.0886653 0.0013039961 -0.08355332 0.049816158 0.011519383 -0.28799617 0.031670164 0.078242734
0.012843772 -0.75842327 0.02930808 -0.0002272726 -0.13782303 0.06974081 0.093148366 -0.06148449
-0.9319038 0.083000325 -0.022507215 0.044194605 -0.044741187 -0.61885804 0.061157774 -0.016891856
0.073738575 0.25744945 -0.015730832 0.019851603 -0.0021374663 0.06380143 -0.030056123 0.022211876
0.09381993 0.08609278 -0.734957 0.16439249 0.06330506 0.010296818 0.034143556 0.04233859
-0.5070576 0.008276478 -0.001930764 0.05163099 0.021369286 -0.11885133 -0.03848296 0.044160537
-0.02580989 0.03630475 0.106149286 -0.108599454 -0.032610938 0.10418352 0.045916017 0.010043549
0.060816046 -0.73045826 0.07375685 0.013413474 -0.08503253 0.0327179 0.012589618 0.0038848573
-0.03609411 -0.55899286 0.012847292 0.09166061 -0.0008357214 0.15606412 -0.5111402 0.07473574
00000000: 3680 413b b178 8a3c 94b6 e93c 07c8 f3bc
00000010: 4a96 2abe 8f6d c93d 7942 79bf 33fc 683c
00000020: e633 0c3c 150e 4dbc af8a 48bd c6bb 64bd
00000030: 16e7 7bbf fcbc 1c3d 3656 f53d 4ee7 313d
00000040: 0cc5 a4bd 2964 3a3e 5d2f 13bc f5c7 4ebf
00000050: 43b9 a1bd 580e 043d 4023 d33d 4c73 103e
00000060: 2a3d e1bb 01a9 223d 8dbd a8bc ed26 723e
00000070: 4db5 1cbd 927c 2f3d 86ac 0e3b 25e8 3f3d
00000080: ff61 913d ace8 233d 2cb4 933d 332f 4bbd
00000090: 2398 02bd c0c4 35bf c6bd aabd 5561 b1bc
000000a0: 7b2b 9e3d 6c08 a73c 8303 193d 81ba 993c
000000b0: 9285 ddbc db65 ab3d 7071 c23d 0b7d 6d3d
000000c0: 9da2 4b3b ff8e 863d 7f7e d2bd 7d8e ce3c
000000d0: 2911 543d 7e08 043d f1fe 25bc 93fe ae3c
000000e0: 0a32 c6bd 5195 71bd bdb5 473d 7cd0 2d3e
000000f0: 5f07 813d bd7d 88be c22c e93d 1d08 52bf
00000100: 8dd1 25bf 8fa1 953d a720 8d3d 8ff7 6abf
00000110: 2669 6b3d b941 9e3d 1630 e5bc 1b77 c0bd
00000120: c074 973c 9ee1 ad3d ad9c 073e c387 293e
00000130: 71e2 603d 8d53 a93e c3de c03d 286a 0fbd
00000140: f11a c53c 49b0 253e 5db0 153d 67ee 9dbc
00000150: aca9 95bd 47bb a4bd 8991 cfbd fe30 1c3e
00000160: d39b fdbe c4d8 fb3c 71b5 783c 8a4c 883e
00000170: 9eac 76bc 4b8f d73c ca4e efbc 3845 fcbe
00000180: 817d 893e 1b21 36be 936e 593d 5336 72bb
00000190: 30e0 3fbf a16a 983d 5d38 b2bb 92c6 b8bd
000001a0: cf94 0fbc 2b74 153c 7753 15bd 9e9d 7abe
000001b0: 2c67 9a3c 1724 133e 2c5f 63bd b4f5 283c
000001c0: 6fa4 a6bc cf88 663e d4a1 7f3d e97a a43d
000001d0: dbfb 87bc db0a f7bc 4acc 43bd 9482 463c
000001e0: 6cbc b03d d9f8 903e e156 c03d dddc f63d
000001f0: d5e4 863c b8f5 313c efaf 4b3e bb1e ea3c
00000200: 49ca c73c 67e1 6e3b 170d 83bd 2549 8cbd
00000210: 6d34 983d 5f7e 8a3d e6c0 ea3d 0bf5 b3bd
00000220: 2909 0ebe 3987 97bc 6126 91be 1998 5dbe
00000230: a8bc 16bd acbe f43d 031f d13d fedc 65bf
00000240: b132 683d 39fc 603e e5ab 8a3d 22df a8bd
00000250: 94b2 593d 71e8 1cba b622 7f3d a849 273e
00000260: 6a34 3b3d 6c64 6a3d 8dde 273e ccd7 433e
00000270: 01d3 533d 48d6 92bd 59d6 dd3d b2c2 133d
00000280: da84 9fbd 07af 26bc ead9 f0bc 6731 bbbc
00000290: 8a2c 823d d786 8e3c 9923 a5bd bc77 ce3d
000002a0: 61d8 59bf 6e0a 873d b385 89bd 0186 d43c
000002b0: 0f03 b83c 8ef2 a8bd d029 38bd f2a1 0fbd
000002c0: 631f 063d 8dd6 623e f415 a5bd ebd9 9cbf
000002d0: 60f1 833d f30c 863d 07af 37bd 914a 8dbf
000002e0: 2796 b5bd d9ea aa3a 011e abbd 070c 4c3d
000002f0: cbbb 3c3c 3c74 93be 93b8 013d ba3d a03d
00000300: af6e 523c 0728 42bf 8017 f03c 0650 6eb9
00000310: 7b21 0dbe 45d4 8e3d 92c4 be3d 29d7 7bbd
00000320: 3f91 6ebf 13fc a93d 0d61 b8bc 6705 353d
00000330: 8942 37bd 7b6d 1ebf 9380 7a3d ca60 8abc
00000340: 4004 973d 6ad0 833e f2dd 80bc d49f a23c
00000350: bc14 0cbb 53aa 823d 4238 f6bc aef5 b53c
00000360: aa24 c03d 6951 b03d 2426 3cbf 8156 283e
00000370: 15a6 813d fcb3 283c 1dda 0b3d 3b6b 2d3d
00000380: 87ce 01bf 119a 073c b011 fdba 047b 533d
00000390: a40e af3c 5368 f3bd 4fa0 1dbd aee1 343d
000003a0: 436f d3bc 4ab4 143d cc64 d93d 6469 debd
000003b0: 0c93 05bd 2b5e d53d 6f12 3c3d b38d 243c
000003c0: 3f1a 793d 50ff 3abf d50d 973d 30c4 5b3c
000003d0: 8925 aebd 3403 063d af44 4e3c 1799 7e3b
000003e0: 6bd7 13bd 281a 0fbf 737d 523c 8fb8 bb3d
000003f0: 5014 5bba 46cf 1f3e 16da 02bf 0d0f 993d

model.4.bias f4 [4]
0.75984436 0.5369538 0.7878717 0.67236364
00000000: 2985 423f ce75 093f f6b1 493f 0620 2c3f
