p1_navigation/checkpoint.pth (torch, 175531 bytes, 9 tensors)

feature_model.0.weight f4 [256, 37]
0.07004206 0.01110333 -0.16729744 -0.26797825 -0.25270137 -0.12307274 -0.25387138 0.30217364
0.23919119 -4.1277748e-05 -0.50469625 -0.1015389 0.13889307 0.19607203 0.113546565 -0.15292881
-0.039679874 0.1803796 0.10935447 -0.15343772 0.046013683 0.16995424 -0.15475553 0.28268835
0.23124024 0.19675176 -0.14003024 -0.11936998 -0.3733767 -0.71834296 -0.16130745 0.22236672
-0.0627086 -0.2193855 0.33398765 -0.15028898 0.011377952 0.757016 -0.2201716 -0.3688681
-0.13690278 -0.8439383 0.22398235 -0.65593034 -0.09081392 0.2561141 -0.6937742 -0.06131994
0.091184855 0.23298274 0.09963277 -0.06786234 -0.0556394 -0.018233353 0.08399878 0.2774082
-0.11384355 -0.1915747 -0.12231112 0.03811254 0.31245705 0.018575227 -0.08515635 0.06380443
0.32538578 -0.2951529 0.29394722 -0.15323435 0.2930254 0.3919114 -0.105250046 -0.26031968
0.08016753 0.016467838 0.37979954 0.25911564 0.12484855 -0.32070684 0.34019876 -0.6416952
-0.3084791 0.5701961 0.4928037 -0.39140996 -0.21595967 0.06301804 0.2940131 -0.014474631
-0.14322567 -1.0401269 0.46744433 0.16626129 0.0641492 0.08261897 -0.09388295 0.060835447
0.17669258 -0.055488355 -0.12722781 0.06713939 0.096291296 0.06982423 -0.008818928 -0.17384511
-0.25868458 0.15547559 -0.24171299 -0.17407337 0.21878804 -0.3330852 -0.047673274 0.34689677
0.19588895 -0.2460109 -0.43282035 0.09973688 -0.21868367 -0.06912009 0.011657625 0.114409044
0.053804036 0.11275443 -0.04905391 -0.3747239 -0.015166763 0.014341927 -0.55197936 -0.14936733
0.21798776 -0.7960886 -0.08483156 0.16938111 -0.26884478 -0.4071586 0.19880113 0.07445194
0.013641739 -0.14036486 -0.26762897 0.26622707 0.31759408 0.26458853 -0.008690062 -0.3852874
-0.28373125 0.29156423 0.42996123 0.059847433 -0.24808775 -0.11751989 -0.25186795 -0.16376519
-0.7653333 0.09426683 0.35774708 -0.24829108 -0.23662737 -0.89722836 -0.08463833 -1.079889
0.20475116 -0.1751622 -0.06455665 -0.07662166 0.14073205 -0.024032898 -1.5002104 0.08680934
-0.4364105 0.109648354 0.08990579 -0.14628507 -0.49070662 0.1742137 -1.0234593 0.43029445
-0.62987566 -0.28367093 0.205992 0.13155477 -0.2748751 -0.6099364 -0.23349804 0.4417596
-0.15613247 0.21621987 0.0045395037 -0.2591622 -0.2109521 0.46151927 0.26955244 -0.026947644
0.07006553 0.09386125 -0.22044529 -0.28554675 0.020874767 -0.16844712 0.31813788 -0.084021546
0.17611943 0.053062685 -0.20409608 -0.3040739 -1.0847136 0.09189414 -0.24151354 0.28181422
0.16312467 0.20095277 0.023752498 0.15105249 -0.01191918 -0.2638887 0.17528592 0.068814166
-0.0897718 0.12398264 -0.036695324 -0.5304649 0.041371733 -0.0106563885 0.01013342 0.029905502
-0.088811316 0.4071504 -0.08144802 -0.08169062 -0.036326896 0.06909384 0.033219818 0.22246262
0.016199892 -0.007006966 0.31917408 0.07128776 0.26136383 -0.021429386 -0.18412726 0.07777003
0.330482 0.4153963 0.0038570801 -0.118234254 0.37268236 -0.2670918 0.23287408 -0.27502838
0.13113393 0.12651214 -0.03296852 0.06348023 0.5306983 -0.24243328 -0.7279494 0.0028114957
00000000: 3672 8f3d beea 353c 0550 2bbe 7234 89be
00000010: 1362 81be 900d fcbd 6efb 81be 81b6 9a3e
00000020: 89ee 743e a521 2db8 c633 01bf a0f3 cfbd
00000030: fc39 0e3e 1bc7 483e 1a8b e83d 5f99 1cbe
00000040: 5d87 22bd 6eb5 383e 3df5 df3d c71e 1dbe
00000050: d878 3c3d 7c08 2e3e 3c78 1ebe 87bc 903e
00000060: 3eca 6c3e 4b79 493e 1664 0fbe 4078 f4bd
00000070: 3b2b bfbe 53e5 37bf c82d 25be 1ab4 633e
00000080: 5e6d 80bd 98a6 60be 6e00 ab3e 5be5 19be
00000090: 976a 3a3c cdcb 413f aa74 61be 48dc bcbe
000000a0: 3e30 0cbe 570c 58bf a15b 653e 0deb 27bf
000000b0: a6fc b9bd 6321 833e 309b 31bf 9e2a 7bbd
000000c0: 20bf ba3d 0793 6e3e 440c cc3d 69fb 8abd
000000d0: 24e6 63bd 1d5e 95bc 8d07 ac3d 7308 8e3e
000000e0: cf26 e9bd 282c 44be 417e fabd e51b 1c3d
000000f0: 5ffa 9f3e 132b 983c 7466 aebd e6ab 823d
00000100: f798 a63e 481e 97be 4080 963e 77e9 1cbe
00000110: 6d07 963e 9ca8 c83e 568d d7bd 9f48 85be
00000120: e02e a43d 8fe7 863c 1675 c23e ceaa 843e
00000130: 99b0 ff3d b033 a4be 882e ae3e 2346 24bf
00000140: f9f0 9dbe 5ff8 113f c450 fc3e e366 c8be
00000150: 8824 5dbe 9a0f 813d e388 963e 0127 6dbc
00000160: c0a9 12be e122 85bf dd54 ef3e 6640 2a3e
00000170: a860 833d 2234 a93d b445 c0bd 972e 793d
00000180: e6ee 343e c247 63bd 0248 02be 6080 893d
00000190: 5f34 c53d 0200 8f3d 447d 10bc 7404 32be
000001a0: 4e72 84be fe34 1f3e 9c83 77be 4a40 32be
000001b0: f909 603e 258a aabe 0d45 43bd 749c b13e
000001c0: 1d97 483e 48ea 7bbe a19a ddbe d942 cc3d
000001d0: 9dee 5fbe d58e 8dbd a0ff 3e3c 4a4f ea3d
000001e0: 9f61 5c3d cbeb e63d c1ec 48bd d0db bfbe
000001f0: 047e 78bc 67fa 6a3c 854e 0dbf c0f3 18be
00000200: 2f38 5f3e 76cc 4bbf 2bbc adbd 3e72 2d3e
00000210: 06a6 89be 1877 d0be 8692 4b3e 427a 983d
00000220: 9a81 5f3c cebb 0fbe aa06 89be ea4e 883e
00000230: b19b a23e 2678 873e c360 0ebc 6444 c5be
00000240: 3945 91be e847 953e e123 dc3e 9522 753d
00000250: b70a 7ebe 45ae f0bd d6f4 80be 10b2 27be
00000260: e2ec 43bf f80e c13d a02a b73e 0440 7ebe
00000270: 724e 72be c2b0 65bf dc56 adbd ce39 8abf
00000280: 4aaa 513e b85d 33be 4736 84bd d1eb 9cbd
00000290: 101c 103e a4e0 c4bc e506 c0bf 18c9 b13d
000002a0: 3271 dfbe 518f e03d 8720 b83d c1cb 15be
000002b0: e63d fbbe 1465 323e b700 83bf 8e4f dc3e
000002c0: 883f 21bf 513d 91be 91ef 523e 4bb6 063e
000002d0: 6ebc 8cbe cb24 1cbf 1c1a 6fbe 502e e23e
000002e0: 31e1 1fbe be68 5d3e 1ec0 943b e8b0 84be
000002f0: d403 58be 414c ec3e c702 8a3e 4ec1 dcbc
00000300: 847e 8f3d 543a c03d 69bc 61be 2f33 92be
00000310: 8f01 ab3c 677d 2cbe f8e2 a23e 7d13 acbd
00000320: a758 343e 4258 593d 90fe 50be 93af 9bbe
00000330: e5d7 8abf ff32 bc3d 534f 77be f449 903e
00000340: 270a 273e 90c6 4d3e 9994 c23c 81ad 1a3e
00000350: aa48 43bc 6b1c 87be 277e 333e 71ee 8c3d
00000360: 47da b7bd 9cea fd3d d64d 16bd 8ccc 07bf
00000370: 6875 293d 2298 2ebc a506 263c 62fc f43c
00000380: b5e2 b5bd 0476 d03e 38ce a6bd 694d a7bd
00000390: 83cb 14bd 1281 8d3d 8111 083d 3ecd 633e
000003a0: a3b5 843c b19a e5bb c96a a33e 51ff 913d
000003b0: 7bd1 853e ae8c afbc db8b 3cbe e545 9f3d
000003c0: f034 a93e d3ae d43e 11c7 7c3b cd24 f2bd
000003d0: 39d0 be3e 42c0 88be 8b76 6e3e 85d0 8cbe
000003e0: f947 063e 668c 013e 000a 07bd ec01 823d
000003f0: d8db 073f 6e40 78be e45a 3abf 1241 383b

feature_model.0.bias f4 [256]
-0.10674649 0.018885653 -0.243014 -0.30874538 0.035556916 -0.1421822 -0.17814818 -0.050048318
-0.2430175 -0.30713612 0.12497192 0.002597711 -0.22562467 -0.112687856 -0.23895563 -0.014085848
0.22095592 -0.15219815 -0.052689664 -0.31505406 -0.23545836 -0.20263866 0.21509007 -0.46639934
0.005883828 -0.024372296 0.06074681 0.074427575 0.162255 0.103143595 0.097246155 -0.16318987
-0.2713819 -0.034144785 0.29557544 -0.13999577 0.12634258 0.41154265 -0.22287878 -0.01854047
-0.13417847 0.008386169 0.12209896 -0.071459986 -0.03147392 -0.21623679 -0.39853725 -0.16176787
-0.27591345 -0.13344373 -0.06678945 0.11619065 -0.25238755 -0.2002428 0.16466005 -0.3528128
0.020367745 -0.09658991 -0.03074417 0.04250064 0.3018453 0.06526485 -0.16594279 -0.042555265
-0.07568259 -0.090077534 -0.32367495 -0.16401775 -0.21779878 -0.17579287 -0.09796361 0.24799886
-0.20765172 -0.027592815 -0.110100985 -0.2694344 0.20178916 -0.12722574 -0.18917428 -0.028831681
-0.41775197 -0.0019143132 -0.04396353 -0.13785906 0.105038255 -0.2280218 -0.121592924 0.30811355
-0.010611143 0.025859328 0.056072235 -0.2459428 -0.11844298 0.09103473 -0.09727238 -0.015487907
-0.14954673 -0.27711156 0.06334324 0.032889623 -0.06920821 -0.26331556 -0.30117252 -0.056029886
-0.16750973 -0.18080817 0.20005392 -0.23227227 -0.19342314 0.032262582 0.058076967 -0.042183228
0.10044548 -0.071086645 0.01997889 -0.22024553 -0.24254866 -0.14396472 -0.20734298 -0.13627681
-0.049943957 -0.11350386 -0.09351082 -0.05272547 -0.20337914 -0.33545747 0.0972841 0.039463215
0.03482393 -0.38450313 -0.16033083 0.05984673 -0.042781837 -0.32031423 -0.058192503 -0.17672458
0.018554157 -0.4580193 -0.15034142 -0.28357032 -0.11330904 -0.11589735 -0.009685206 -0.21317795
-0.2902845 -0.33396655 -0.22788294 -0.011093245 -0.3748704 0.07690552 -0.012359015 -0.28292915
-0.35107636 -0.37498552 -0.015545836 0.0643014 -0.11683307 -0.43036368 0.41729197 0.11572509
-0.099284016 0.091000445 -0.0484047 0.34097344 -0.21073236 -0.2075104 -0.0070885513 -0.2761382
-0.30019847 -0.3699151 0.079959325 -0.23422226 -0.114161745 0.19828211 0.2671921 -0.18560977
0.099952675 -0.28011253 -0.039165903 -0.060870286 0.24420752 -0.1593262 -0.2902431 -0.06754783
-0.33038715 -0.10487215 0.11370171 0.06403132 0.050948247 -0.08106685 -0.12650247 0.1271762
-0.027295891 0.47765085 -0.15320292 -0.26395386 0.0076463926 -0.2583524 -0.18990682 -0.14231533
0.07373981 -0.144408 -0.20201609 0.028387621 -0.25509888 -0.3452237 0.12784797 0.18893038
0.06640077 -0.14786969 -0.21525839 -0.43785182 0.34721866 -0.3592528 0.031055303 -0.17282777
-0.35108513 -0.095045194 0.0035715504 -0.253505 -0.16237104 -0.05736589 -0.20082647 0.0059440914
-0.3199255 -0.10297116 -0.07727667 -0.12311154 0.15606959 -0.3829985 -0.19819553 0.18362111
-0.12541324 -0.14638114 -0.2319939 -0.45525226 -0.34785408 -0.08940153 -0.07523114 -0.29680076
-0.02347733 -0.07912526 -0.31312668 -0.026220845 -0.23537889 -0.22082189 0.042542282 0.19413424
0.03432349 -0.11586472 -0.17060296 -0.45288876 -0.081027366 -0.022601733 -0.28407225 -0.168671
00000000: e79d dabd 16b6 9a3c a9d8 78be e013 9ebe
00000010: 21a4 113d 3698 11be 7a6c 36be 77ff 4cbd
00000020: 94d9 78be f240 9dbe 47f1 ff3d 5c3e 2a3b
00000030: 270a 67be e4c8 e6bd c9b0 74be 54c8 66bc
00000040: 4542 623e d5d9 1bbe 1ed1 57bd c44e a1be
00000050: ff1b 71be 8280 4fbe 9240 5c3e e5cb eebe
00000060: 20cd c03b 69a8 c7bc a6d1 783d 7c6d 983d
00000070: 2d26 263e f33c d33d fe28 c73d 3f1b 27be
00000080: 92f2 8abe 67db 0bbd aa55 973e 0d5b 0fbe
00000090: f35f 013e b8b5 d23e 563a 64be 2fe2 97bc
000000a0: 1566 09be 2466 093c 050f fa3d 9d59 92bd
000000b0: ccea 00bd 2d6d 5dbe 130d ccbe 7aa6 25be
000000c0: 8744 8dbe 79a5 08be e8c8 88bd 5df5 ed3d
000000d0: f138 81be 730c 4dbe a59c 283e e1a3 b4be
000000e0: 42da a63c eed0 c5bd 33db fbbc 2715 2e3d
000000f0: 788b 9a3e 94a9 853d e8ec 29be 6e4e 2ebd
00000100: 79ff 9abd 927a b8bd b9b8 a5be 45f4 27be
00000110: a506 5fbe 0c03 34be 25a1 c8bd 6af3 7d3e
00000120: a7a2 54be 540a e2bc a07c e1bd 4ef3 89be
00000130: d1a1 4e3e 7747 02be e7b6 41be 6b30 ecbc
00000140: 96e3 d5be b1e9 faba 1a13 34bd ed2a 0dbe
00000150: 4c1e d73d 8c7e 69be b605 f9bd 0fc1 9d3e
00000160: 5cda 2dbc f1d6 d33c 00ac 653d 6ed8 7bbe
00000170: 3c92 f2bd 6b70 ba3d be36 c7bd fec0 7dbc
00000180: c722 19be 91e1 8dbe 1aba 813d 45b7 063d
00000190: 09bd 8dbd 4cd1 86be 4933 9abe 987f 65bd
000001a0: ac87 2bbe c725 39be efda 4c3e c8d8 6dbe
000001b0: b710 46be c525 043d 1de2 6d3d 52c8 2cbd
000001c0: 5cb6 cd3d e095 91bd c5aa a33c 0b88 61be
000001d0: ad5e 78be 7d6b 13be b851 54be 268c 0bbe
000001e0: 0992 4cbd b674 e8bd 9a82 bfbd aaf6 57bd
000001f0: 9f42 50be 15c1 abbe e33c c73d 2ea4 213d
00000200: 8aa3 0e3d 98dd c4be c42d 24be d821 753d
00000210: 023c 2fbd 3a00 a4be 435b 6ebd 4af7 34be
00000220: e3fe 973c 8181 eabe 1af3 19be 2130 91be
00000230: 920e e8bd 975b edbd b3ae 1ebc 524b 5abe
00000240: 2ca0 94be aafd aabe 255a 69be 71c0 35bc
00000250: 03ef bfbe a480 9d3d 777d 4abc 17dc 90be
00000260: 48c0 b3be 1afe bfbe f6b3 7ebc 74b0 833d
00000270: 2d46 efbd a158 dcbe 4ba7 d53e 4701 ed3d
00000280: 6b55 cbbd 715e ba3d 0244 46bd 1294 ae3e
00000290: 39ca 57be 9b7d 54be 1447 e8bb fc61 8dbe
000002a0: 9db3 99be 8365 bdbe b7c1 a33d f6d7 6fbe
000002b0: a2cd e9bd 770a 4b3e 67cd 883e 7d10 3ebe
000002c0: fdb3 cc3d e96a 8fbe 6d6c 20bd 1f53 79bd
000002d0: 8911 7a3e 6826 23be be9a 94be 8456 8abd
000002e0: 8128 a9be 36c7 d6bd 71dc e83d da22 833d
000002f0: 1caf 503d 6006 a6bd dd89 01be 7a3a 023e
00000300: a29b dfbc a78e f43e 3ae1 1cbe f624 87be
00000310: 978e fa3b c446 84be ef76 42be 1cbb 11be
00000320: e604 973d b1df 13be 4edd 4ebe 288d e83c
00000330: 529c 82be 29c1 b0be 94ea 023e f776 413e
00000340: 20fd 873d 276b 17be b26c 5cbe 1d2e e0be
00000350: a5c6 b13e fcef b7be b167 fe3c c3f9 30be
00000360: 6ec1 b3be 0ea7 c2bd ac10 6a3b 68cb 81be
00000370: 9844 26be 7ff8 6abd 74a5 4dbe a7c6 c23b
00000380: 46cd a3be 8be2 d2bd 3b43 9ebd e721 fcbd
00000390: b5d0 1f3e 6118 c4be c5f3 4abe 2c07 3c3e
000003a0: 546c 00be f0e4 15be cf8f 6dbe d316 e9be
000003b0: ee19 b2be 2618 b7bd c912 9abd 45f6 97be
000003c0: 8853 c0bc 6d0c a2bd 2452 a0be 19cd d6bc
000003d0: 2a07 71be 221f 62be d140 2e3d 20cb 463e
000003e0: ca96 0c3d 7b4a edbd 8bb2 2ebe 09e1 e7be
000003f0: adf1 a5bd 4527 b9bc eb71 91be 17b8 2cbe

state_value_model.0.weight f4 [64, 256]
-0.43813875 -0.065212384 -0.12974744 -0.16882534 -0.14326738 -0.14812654 -0.29416054 0.035605803
-0.18958344 0.24597071 -0.08634887 -0.5085917 -0.0069291587 -0.20482032 -0.25397354 -0.2909895
-0.5027778 -0.14346874 -0.21731903 -0.34724697 -0.17907587 -0.36471984 -0.114387415 0.028539114
-0.21249828 -0.19864975 -0.14592677 -0.1379444 -0.48630157 -0.013463982 -0.24347068 -0.0812597
-0.14458299 0.06017501 0.055608746 -0.17027509 -0.05062995 -0.017686183 0.5053639 -0.052561995
-0.07013331 -0.016393924 -0.11283954 -0.024480797 -0.07985116 -0.19160588 -0.3669719 -0.09669575
-0.21972036 -0.42495263 -0.49695113 0.023249345 -0.13292053 -0.0932129 -0.0722064 -0.10619764
-0.12093263 -0.14366381 -0.13070124 -0.3451659 -0.18562138 -0.24074687 0.22074053 -0.3366044
-0.06201937 -0.06663842 0.2116742 -0.30953178 -0.21684997 -0.27310458 -0.1727112 -0.091972336
-0.0036563908 0.14762634 -0.13807718 0.011676725 -0.21817078 -0.22170462 -0.40443277 0.110966235
-0.27299324 -0.029429972 0.0028267172 -0.19394265 0.11564553 -0.05699191 0.04889845 -0.030039132
-0.025284285 -0.38722202 -0.06425578 -0.12610456 -0.012533006 -0.22974971 0.4942335 -0.15760458
-0.010948947 -0.18832761 -0.12895355 -0.22743087 -0.08160639 -0.20013206 -0.08993078 0.023587506
-0.12585583 -0.18228963 -0.31678975 -0.18915555 -0.52871966 0.07820933 -0.16623187 0.008917718
-0.13112433 -0.39418852 -0.12618199 -0.1560262 -0.11820684 -0.25254342 -0.024385681 -0.10001748
-0.08782584 -0.29880038 -0.16890195 -0.16076143 -0.23755756 -0.27680993 0.13668826 -0.1847936
-0.19097708 0.08880764 0.21199137 -0.048196584 -0.004902044 -0.15619919 -0.06540785 -0.28149283
-0.032443993 -0.18038271 -0.20429645 -0.0069143013 -0.25978187 0.090352446 -0.07583833 -0.16306917
-0.17697304 -0.035952486 -0.43852383 0.029209152 -0.014406805 -0.008829064 -0.29194677 -0.034141347
0.12409615 0.11362344 -0.26964027 0.032438062 -0.0019910848 0.21894073 -0.027528932 -0.18062809
-0.1324412 -0.1075832 -0.18780859 -0.0103242025 -0.065982975 -0.21144126 0.17110415 -0.26717088
-0.022761423 0.07112324 -0.2796627 -0.03759719 -0.006521835 -0.06779461 -0.27594602 -0.05544905
-0.080343835 -0.50913644 -0.106412046 -0.3258748 -0.035532817 -0.26353607 -0.005557291 -0.18991405
-0.38572362 0.016074628 -0.083678305 -0.19191858 -0.2952108 -0.3439648 0.15459055 -0.24159473
-0.16992214 0.10375183 -0.41868544 0.18845817 -0.27107924 -0.111516885 -0.057222787 -0.4126361
0.15897079 -0.26380718 -0.07027258 0.0038280955 -0.14361033 0.28599426 -0.14473042 -0.2056368
-0.25518942 -0.18173623 -0.015551166 -0.27836692 0.065016896 -0.17073563 -0.14186239 -0.041208986
-0.17087068 -0.04962966 -0.24966893 -0.12262749 -0.029456954 -0.13397956 -0.3416757 -0.27957317
-0.3494804 0.13126747 0.11361535 -0.36375606 -0.4452289 0.035120536 -0.16072558 -0.047116242
-0.3309255 -0.06822544 -0.05497048 0.16148563 -0.13845007 -0.112252794 0.118422 -0.2498887
-0.26070803 -0.14429048 -0.14740466 -0.069588274 -0.09126587 -0.36635903 0.03602809 -0.21241215
-0.1833324 -0.21754566 -0.037884325 -0.20760578 -0.21662001 -0.046384532 -0.092247725 -0.12084516
00000000: b953 e0be 128e 85bd 83dc 04be 8de0 2cbe
00000010: afb4 12be 7cae 17be 369c 96be 64d7 113d
00000020: 2922 42be bfdf 7b3e add7 b0bd 1133 02bf
00000030: ff0d e3bb 6bbc 51be d208 82be 93fc 94be
00000040: 0cb6 00bf 78e9 12be e188 5ebe 5bca b1be
00000050: aa5f 37be 8fbc babe f343 eabd dcca e93c
00000060: 2699 59be d76a 4bbe d46d 15be 4c41 0dbe
00000070: 85fc f8be 0998 5cbc 6150 79be 7c6b a6bd
00000080: 900d 14be 127a 763d ffc5 633d 985c 2ebe
00000090: 5a61 4fbd 9de2 90bc 875f 013f 3f4b 57bd
000000a0: 0ea2 8fbd 8d4c 86bc 6b18 e7bd f48b c8bc
000000b0: 0189 a3bd 5534 44be bee3 bbbe 6c08 c6bd
000000c0: 60fe 60be 6493 d9be 6170 febe 6975 be3c
000000d0: 521c 08be 68e6 bebd f3e0 93bd 267e d9bd
000000e0: 87ab f7bd 9b1c 13be 8cd6 05be 96b9 b0be
000000f0: 8813 3ebe 5986 76be ce09 623e 6957 acbe
00000100: 0608 7ebd b979 88bd 1fc1 583e f37a 9ebe
00000110: eb0d 5ebe 5dd4 8bbe 34db 30be fe5b bcbd
00000120: 0fa0 6fbb 5c2b 173e 1b64 0dbe bc4f 3f3c
00000130: 2968 5fbe 8906 63be d011 cfbe 4442 e33d
00000140: c5c5 8bbe 2017 f1bc 7240 393b e798 46be
00000150: 90d7 ec3d 5970 69bd be49 483d a014 f6bc
00000160: fd20 cfbc f741 c6be 8998 83bd 8e21 01be
00000170: 3d57 4dbc 8243 6bbe 2c0c fd3e 1863 21be
00000180: 3663 33bc f4d8 40be 660c 04be a3e3 68be
00000190: 4021 a7bd 6bef 4cbe a12d b8bd 963a c13c
000001a0: 5ae0 00be 22aa 3abe 4432 a2be feb1 41be
000001b0: 2c5a 07bf 372c a03d b038 2abe 9f1b 123c
000001c0: 7545 06be 14d3 c9be da35 01be 55c5 1fbe
000001d0: 6d16 f2bd 5f4d 81be 7bc4 c7bc f7d5 ccbd
000001e0: 09de b3bd 5dfc 98be a2f4 2cbe a59e 24be
000001f0: 4a42 73be 08ba 8dbe 02f8 0b3e 893a 3dbe
00000200: 7f8f 43be c8e0 b53d 4414 593e c869 45bd
00000210: 53a1 a0bb aef2 1fbe 8df4 85bd d41f 90be
00000220: fee3 04bd 3fb6 38be 1733 51be 5d91 e2bb
00000230: 2102 85be b40a b93d 2051 9bbd 9bfb 26be
00000240: 6c38 35be ea42 13bd 3286 e0be 0848 ef3c
00000250: 850a 6cbc c7a7 10bc 0c7a 95be ccd7 0bbd
00000260: 1f26 fe3d 68b3 e83d 4a0e 8abe c6dd 043d
00000270: dc7c 02bb 0032 603e 5b84 e1bc 92f6 38be
00000280: aa9e 07be 9554 dcbd e550 40be d826 29bc
00000290: 1522 87bd 0f84 58be ed35 2f3e 9fca 88be
000002a0: 2a76 babc 10a9 913d f32f 8fbe 83ff 19bd
000002b0: 1eb5 d5bb e7d7 8abd cc48 8dbe 8b1e 63bd
000002c0: 4f8b a4bd c456 02bf 8fee d9bd 10d9 a6be
000002d0: dc8a 11bd 33ee 86be f019 b6bb d478 42be
000002e0: 917d c5be f0ae 833c 885f abbd 4e86 44be
000002f0: df25 97be 271c b0be fc4c 1e3e 9c64 77be
00000300: 1200 2ebe d77b d43d f05d d6be 2efb 403e
00000310: e6ca 8abe f762 e4bd 7162 6abd 0a45 d3be
00000320: 3dc9 223e bc11 87be 12eb 8fbd c9e0 7a3b
00000330: 960e 13be d76d 923e 3634 14be 7492 52be
00000340: 30a8 82be 1019 3abe 51ca 7ebc 1c86 8ebe
00000350: 9427 853d 52d5 2ebe 6044 11be c1ca 28bd
00000360: b9f8 2ebe 7848 4bbd 36a9 7fbe 1f24 fbbd
00000370: b64f f1bc f031 09be 1ef0 aebe 3724 8fbe
00000380: 18ef b2be fb6a 063e 2aaf e83d 3c3e babe
00000390: 0bf5 e3be 8dda 0f3d 3f95 24be f6fc 40bd
000003a0: 116f a9be c8b9 8bbd ba28 61bd 7d5c 253e
000003b0: dbc5 0dbe cbe4 e5bd 3c87 f23d d3e2 7fbe
000003c0: 867b 85be e2c0 13be 3ff1 16be 4c84 8ebd
000003d0: 9ae9 babd 6993 bbbe 3192 133d 9282 59be
000003e0: 7dbb 3bbe 4ac4 5ebe 982c 1bbd 9c96 54be
000003f0: a3d1 5dbe b5fd 3dbd 60ec bcbd ab7d f7bd

state_value_model.0.bias f4 [64]
0.12786865 -0.12498383 0.36626795 -0.04012944 -0.106081314 0.037790813 -0.06497518 0.03405716
-0.0939242 -0.068674795 -0.085334085 0.65812916 -0.031702302 -0.03663063 -0.10286655 -0.02471036
-0.08392658 0.28317973 -0.041697245 -0.10987858 -0.054511983 -0.04099914 0.5892175 -0.099856906
-0.06586862 -0.039373927 0.022986047 0.6455547 0.012400612 0.66890734 -0.07035063 0.5860811
0.027450096 0.31285545 0.12482402 -0.027030602 0.11019087 -0.12795539 -0.03160644 -0.08468305
-0.07194821 0.035884514 0.12701832 0.21095106 0.33480638 -0.016834266 -0.08232979 -0.08319143
-0.07169228 -0.067150146 -0.03343962 -0.074325874 0.23046094 0.17684615 -0.023451233 -0.008009757
-0.0052543445 0.2057537 0.15899335 0.16329916 -0.104888625 -0.13511588 -0.046562158 -0.0054009724
00000000: 00f0 023e 86f7 ffbd 7987 bb3e c55e 24bd
00000010: 2941 d9bd 8aca 1a3d b511 85bd 857f 0b3d
00000020: 555b c0bd 5fa5 8cbd a3c3 aebd 277b 283f
00000030: 46da 01bd 000a 16bd b3ab d2bd 626d cabc
00000040: b3e1 abbd effc 903e bbca 2abd 0508 e1bd
00000050: f547 5fbd b7ee 27bd f5d6 163f c781 ccbd
00000060: 21e6 86bd 8e46 21bd 3c4d bc3c 1343 253f
00000070: f02b 4b3c 833d 2b3f fe13 90bd 6909 163f
00000080: 06df e03c 972e a03e bca3 ff3d 486f ddbc
00000090: c0ab e13d bd06 03be c175 01bd 4f6e adbd
000000a0: 9559 93bd a4fb 123d 1711 023e 8e03 583e
000000b0: be6b ab3e 04e8 89bc 859c a8bd 4560 aabd
000000c0: 67d3 92bd 0486 89bd fcf7 08bd 2a38 98bd
000000d0: f4fd 6b3e 2817 353e cd1c c0bc 5b3b 03bc
000000e0: a32c acbb 19b1 523e 27cf 223e e537 273e
000000f0: d9cf d6bd d15b 0abe f6b7 3ebd a4fa b0bb

state_value_model.2.weight f4 [1, 64]
-0.08744097 0.1423735 -0.08362968 -0.7956827 -0.054536104 -0.0619023 -0.2513409 -0.41554236
-0.44015005 -0.44466215 -0.0010208122 0.097366296 -0.017322192 -0.47558537 0.049103834 0.022095842
-0.048666134 0.0025636298 -0.53292197 -0.4777186 -0.26192954 0.1067449 0.1119203 -0.58961564
0.009378965 0.005285695 -0.0065597473 0.094401374 -0.019516211 0.15209472 0.11768986 0.037753105
0.10433077 -0.011919455 -0.031149236 -0.04633866 -0.00048527244 -0.5295204 -0.48222718 0.21143894
-0.095030315 0.04037186 0.0019903996 0.027491108 -0.0067342375 0.007909246 0.22475448 0.022283545
0.10120805 0.023162775 -0.060779948 -0.055754237 -0.02855871 0.03823649 0.029106677 -0.39738715
-0.109546855 0.008690224 0.13055682 0.09096063 -0.23332416 -0.4043731 -0.3640902 -0.6501973
00000000: 4014 b3bd 5cca 113e 0a46 abbd ddb1 4bbf
00000010: 4061 5fbd 448d 7dbd c1af 80be f8c1 d4be
00000020: 595b e1be c2aa e3be c6cc 85ba fb67 c73d
00000030: 45e7 8dbc ed7f f3be 1a21 493d 5702 b53c
00000040: 2456 47bd 9202 283b 936d 08bf 8897 f4be
00000050: a11b 86be 129d da3d 7836 e53d 0df1 16bf
00000060: 3baa 193c a033 ad3b 26f3 d6bb 8255 c13d
00000070: 76e0 9fbc b8be 1b3e 6207 f13d 00a3 1a3d
00000080: 5fab d53d d149 43bc af2c ffbc 9bcd 3dbd
00000090: 2a6c feb9 a68e 07bf 7be6 f6be 7383 583e
000000a0: 419f c2bd f75c 253d 5d71 023b 0835 e13c
000000b0: e1aa dcbb c895 013c 0a26 663e fb8b b63c
000000c0: 2b46 cf3d dcbf bd3c 65f4 78bd 8e5e 64bd
000000d0: f5f3 e9bc de9d 1c3d 2071 ee3c 5476 cbbe
000000e0: 1a5a e0bd 7161 0e3c b0b0 053e 9149 ba3d
000000f0: 87ec 6ebe fe09 cfbe 086a babe 5573 26bf

advantage_model.0.weight f4 [64, 256]
-0.023350744 0.16672511 -0.79679644 0.025314286 0.044447154 -0.07403627 -0.8239368 0.033385385
-0.3682388 -0.10629357 0.11783389 -0.49873617 -0.9594119 -0.5386305 -0.437654 0.103184305
0.3042576 -0.31847075 -0.3626178 0.05795704 -0.88539815 -0.6345309 0.17211536 0.23733693
-1.1714543 -0.14123502 -0.798589 -0.09641771 -0.29555368 -1.0554099 -0.17913778 -0.008056012
-0.90286076 -0.058314983 0.15053128 0.1555684 0.05944887 0.10554862 -0.6060172 0.094907925
-1.1451033 -0.276524 -0.5744029 0.0951228 0.17310756 -0.043288216 -0.78032666 0.049773317
-0.3287687 0.023982042 -0.43482298 -0.28851795 0.034811594 -0.1567159 -0.22656444 -0.7510635
0.0267641 -0.23847298 -0.8096124 -0.17079881 -0.09057917 0.14083838 -0.09730233 0.09694202
-0.09069791 0.11437237 -0.12688419 -0.959294 -0.12619486 -0.056696076 -0.5693344 0.14320119
0.22025447 -0.104838096 -0.89440376 0.0021650721 -0.2932486 -0.04391793 0.15446806 -0.073627435
0.33191553 -0.29904187 -0.34536716 -0.76163834 0.24531025 0.018669877 -0.41856602 0.026666146
0.108351424 -0.032684296 -0.5421421 -0.3077713 -0.88576245 0.042941958 0.15898685 -0.9090838
0.44245377 -0.08407163 -0.19747558 -0.9430967 -0.71865064 -0.48053062 -0.7476204 -0.33865398
0.04137437 -0.53638405 -0.092800945 -1.008377 -0.1526365 0.07126027 -0.33004332 -0.24412468
-0.46510413 -1.020143 -0.66225326 -0.73861116 0.46274546 -0.34442645 -0.82195425 -0.06414556
-0.30258772 -1.253584 0.009862925 -0.14155298 -0.8563274 -0.41305828 0.16321711 0.0381376
-0.80563694 -0.024459336 -0.03562414 -0.20783825 -0.8407391 -0.75994736 0.051431317 0.09933276
0.16534115 -0.65182567 -0.9105763 0.27309588 -0.110574275 0.0844774 0.14925267 -0.49584
0.6079948 -0.93333006 0.20632993 -0.12510638 0.14420012 -0.64328873 0.19179142 0.1597693
-0.19081178 0.09626898 0.17901401 0.11833742 -1.1418269 -0.5102524 0.061112694 -0.010946901
-0.23007242 -0.060210012 0.25115824 -0.06449441 -0.19088225 -0.2820661 0.08607589 -0.69820523
0.032494534 -0.6651608 -0.9577181 0.1393559 -0.2190758 -0.4034586 -0.45488867 0.27996534
-0.4631461 -0.06505962 0.24030833 -0.23699106 0.071438916 -0.66706705 -0.07750652 -0.04719545
-0.50181735 -0.020800887 0.0765565 -0.061316412 -0.89014477 0.100679204 0.22882642 0.11364236
0.15093948 0.20801857 -0.055716768 -0.35105318 -0.6894646 0.046447 -0.021462057 -0.57578856
0.07721731 0.0080536585 0.11291876 -0.08885997 -0.10106445 0.14898442 -0.7642202 0.16682659
0.5185283 -0.528929 -0.21058457 -0.12984297 -0.07502697 -0.44150725 0.4505382 -0.88883346
-0.924664 -0.28543955 -0.16186719 -0.22343211 -0.07727201 -0.5418928 0.05278 -0.026891463
-0.5226574 0.08720911 -0.16734728 -0.15299357 -0.3419945 -0.8203732 0.051909704 0.033895355
-0.9336897 0.3013146 -0.09577763 0.3246231 -0.6964939 0.26138955 -1.0584339 0.06742943
-0.5027788 -0.79977345 0.09991211 0.1818327 -0.24242346 -0.23534289 0.12581788 -0.95343095
-0.3948555 -0.2977521 -0.36489862 -0.73323333 -0.01656169 -0.71909446 -0.30210423 -0.5515081
00000000: 0f4a bfbc fdb9 2a3e dafa 4bbf e85f cf3c
00000010: 380e 363d 54a0 97bd 86ed 52bf 1dbf 083d
00000020: cc89 bcbe 71b0 d9bd e552 f13d 595a ffbe
00000030: 059c 75bf b0e3 09bf 2f14 e0be 4b52 d33d
00000040: a7c7 9b3e 990e a3be 0aa9 b9be 5c64 6d3d
00000050: 74a9 62bf 9e70 22bf 023f 303e 7408 733e
00000060: 37f2 95bf ea9f 10be 5470 4cbf a676 c5bd
00000070: d052 97be ac17 87bf e56f 37be 5dfd 03bc
00000080: e221 67bf b1db 6ebd df24 1a3e 534d 1f3e
00000090: a980 733d e029 d83d f123 1bbf 165f c23d
000000a0: bf92 92bf 8e94 8dbe 120c 13bf becf c23d
000000b0: 1c43 313e fc4e 31bd 7dc3 47bf 1bdf 4b3d
000000c0: 5f54 a8be fd75 c43c 1ea1 debe a0b8 93be
000000d0: 9a96 0e3d 227a 20be 8200 68be b345 40bf
000000e0: 6340 db3c 4332 74be c242 4fbf e2e5 2ebe
000000f0: 9281 b9bd f037 103e 7246 c7bd 8a89 c63d
00000100: d3bf b9bd 103c ea3d eeed 01be 4b94 75bf
00000110: 3a39 01be 253a 68bd e6bf 11bf 55a3 123e
00000120: 638a 613e 5bb5 d6bd a5f7 64bf e2e3 0d3b
00000130: ae24 96be 4ae3 33bd e02c 1e3e fbc9 96bd
00000140: d5f0 a93e 041c 99be f7d3 b0be bbfa 42bf
00000150: 9c32 7b3e 92f1 983c 494e d6be f672 da3c
00000160: 5ae7 dd3d f8df 05bd d3c9 0abf 3394 9dbe
00000170: 54c1 62bf e8e3 2f3d 73cd 223e b7b9 68bf
00000180: 4d89 e23e bf2d acbd 0a37 4abe c96e 71bf
00000190: 7df9 37bf 1c08 f6be 0d64 3fbf 0e64 adbe
000001a0: 2c78 293d 7750 09bf 6c0e bebd 7f12 81bf
000001b0: be4c 1cbe e8f0 913d 70fb a8be d2fb 79be
000001c0: 2122 eebe 0c94 82bf 6e89 29bf 9f15 3dbf
000001d0: f9ec ec3e aa58 b0be 986b 52bf bf5e 83bd
000001e0: c7ec 9abe 7175 a0bf 1b98 213c 44f3 10be
000001f0: 4638 5bbf 607c d3be 6322 273e 2c36 1c3d
00000200: 393e 4ebf f25e c8bc 9eea 11bd 8dd3 54be
00000210: ad3a 57bf e98b 42bf a5a9 523d f96e cb3d
00000220: 314f 293e 0cde 26bf 871b 69bf 39d3 8b3e
00000230: c474 e2bd 7d02 ad3d b1d5 183e bede fdbe
00000240: 8ca5 1b3f b8ee 6ebf 2748 533e e31b 00be
00000250: 32a9 133e 92ae 24bf f864 443e 909a 233e
00000260: 2a64 43be ac28 c53d 734f 373e e45a f23d
00000270: 6227 92bf e79f 02bf 4e51 7a3d a15a 33bc
00000280: 1b98 6bbe c69e 76bd d097 803e a515 84bd
00000290: a376 43be f86a 90be 8e48 b03d 94bd 32bf
000002a0: fd18 053d fa47 2abf 032d 75bf 50b3 0e3e
000002b0: 6855 60be 2092 cebe 2be7 e8be 9e57 8f3e
000002c0: 7c21 edbe fa3d 85bd 6313 763e c9ad 72be
000002d0: 914e 923d e8c4 2abf bdbb 9ebd 0450 41bd
000002e0: 1a77 00bf 9f66 aabc a7c9 9c3d eb26 7bbd
000002f0: 87e0 63bf e630 ce3d 7951 6a3e 53bd e83d
00000300: e18f 1a3e d202 553e 4437 64bd 3ebd b3be
00000310: c180 30bf 363f 3e3d 32d1 afbc e166 13bf
00000320: 1c24 9e3d 7ef3 033c f341 e73d 37fc b5bd
00000330: e1fa cebd 5f8f 183e efa3 43bf 97d4 2a3e
00000340: 45be 043f e467 07bf 7ba3 57be 8ef5 04be
00000350: bda7 99bd 3d0d e2be f1ac e63e 978a 63bf
00000360: c8b6 6cbf 2225 92be 83c0 25be 63cb 64be
00000370: ca40 9ebd 7db9 0abf d72f 583d 7c4b dcbc
00000380: e0cc 05bf b19a b23d 165d 2bbe 59aa 1cbe
00000390: e719 afbe fa03 52bf 459f 543d dbd5 0a3d
000003a0: 4a06 6fbf e845 9a3e 1027 c4bd 0035 a63e
000003b0: 6d4d 32bf dad4 853e c37a 87bf 7118 8a3d
000003c0: 1db6 00bf f4bd 4cbf b89e cc3d 5a32 3a3e
000003d0: db3d 78be bafd 70be 67d6 003e 0d14 74bf
000003e0: 802a cabe f772 98be fed3 babe 2eb5 3bbf
000003f0: 62ac 87bc 9316 38bf 68ad 9abe a32f 0dbf

advantage_model.0.bias f4 [64]
0.038077418 -0.037281796 0.025882551 0.03921667 -0.8535003 0.010980754 0.0958448 -0.077772945
0.0012657879 -0.10377509 -0.0921629 0.019605901 0.08137504 0.06011796 0.017361639 0.011962716
0.020772247 -0.012173624 -0.06583812 -0.06965066 0.00082240277 -0.05059566 -0.06916568 -0.039311823
0.08864162 -0.069673486 -0.02304202 0.07159663 -0.07339928 -0.013550824 -0.07128216 -0.018210351
-0.09120132 0.042873397 0.019987937 -0.071443975 -0.048410244 -0.08058156 -0.04163602 -0.053711124
0.081654 -0.001545691 -0.10163323 -0.028854437 0.094210476 0.004896219 -0.047656864 -0.0012985105
-0.07386826 -0.07406113 -0.10890836 0.0028120195 0.20879725 -0.08758639 -0.08247123 0.008786974
0.15454522 -0.07765546 0.014008547 -0.08567938 -0.06662564 -0.07456587 0.049257737 -0.060435154
00000000: 11f7 1b3d ccb4 18bd a507 d43c a9a1 203d
00000010: ff7e 5abf 9fe8 333c 474a c43d 6c47 9fbd
00000020: cbe8 a53a 0988 d4bd e7bf bcbd 8e9c a03c
00000030: f5a7 a63d 403e 763d ff39 8e3c 44ff 433c
00000040: 8f2a aa3c e173 47bc 23d6 86bd 01a5 8ebd
00000050: 8496 573a 653d 4fbd bca6 8dbd 6f05 21bd
00000060: bd89 b53d f9b0 8ebd 9ec2 bcbc 41a1 923d
00000070: 5d52 96bd 4604 5ebc 62fc 91bd e02d 95bc
00000080: c2c7 babd 049c 2f3d bebd a33c 3851 92bd
00000090: d249 46bd f207 a5bd 888a 2abd 3200 5cbd
000000a0: 363a a73d c998 caba 1525 d0bd 2460 ecbc
000000b0: 6cf1 c03d 7670 a03b d833 43bd c832 aaba
000000c0: 3e48 97bd 5dad 97bd 590b dfbd dc49 383b
000000d0: f2ce 553e 7e60 b3bd ade6 a8bd 3df7 0f3c
000000e0: 1a41 1e3e d309 9fbd 1b84 653c ac78 afbd
000000f0: 0673 88bd feb5 98bd 7bc2 493d da8a 77bd

advantage_model.2.weight f4 [4, 64]
-0.013424778 -0.08582656 0.12026297 0.043039113 -0.08449125 0.0318661 -1.0209411 0.105091535
0.021312227 -0.0323524 -0.02027052 0.009660315 -1.1772493 0.10750049 -0.5894209 0.036467407
0.0051368964 0.10642895 -0.039006885 0.1070501 0.06280002 0.118405364 0.007227264 -0.01577156
0.062409595 0.12242511 0.03864916 0.13496321 0.008776795 -0.00362703 -0.00033468317 0.10120823
0.018631307 0.01817558 0.008894503 0.06408882 0.07539033 -0.06434622 -0.0078005823 0.059824347
-0.90633065 0.06944787 -0.04906558 0.01452529 0.0345532 -0.019760996 -0.0711895 -0.4079224
-0.027540414 0.061629742 -0.59189576 0.05462324 0.12051421 -0.007831159 -0.07439612 0.11883582
-0.009078354 -0.002882442 -0.07573191 -0.0026166616 0.26341355 -0.06498118 -0.6470581 0.08824607
0.027498377 -0.014468524 -0.09140771 -1.0012513 -0.0026990278 0.015382981 0.023529507 0.12220015
-0.03173014 -0.0062226155 0.019801673 0.020817548 0.031216262 0.10587252 0.017783593 -0.05614698
0.008161041 -0.1106144 -0.05756801 -0.071564585 0.056428608 0.13149782 -0.080351084 0.032804914
0.048037596 0.15801737 0.012200424 0.16269964 -0.04472278 0.05934795 0.4635079 0.21178922
-0.13522407 -0.09173883 0.0011264154 -0.49624816 0.03377447 0.05715412 -0.031609945 0.11715078
0.05883646 0.08244391 0.23526683 -0.0014206276 0.02104742 -0.04398799 0.045829523 0.07435068
0.045885894 -0.47198823 -0.7658948 -0.05897056 0.14402783 -0.041241057 0.07197134 -0.004454099
0.07620429 -0.001907537 -0.071790874 -0.05382561 -0.035336833 -0.06841343 -0.020574093 -0.11897863
-0.7917453 0.072307855 0.13430473 -0.058092684 -0.05693616 0.09751723 0.013307987 0.068251185
-0.7514835 0.007677657 0.053236976 0.12800044 0.015421941 0.039216977 0.053992145 -0.39259237
0.024610795 -0.13070954 0.10918876 0.013886993 0.062024727 -0.11235943 -0.029507475 -0.83379906
0.09170972 0.06516781 -0.040110983 0.0762816 -0.74701095 -0.02959724 0.1420212 0.16048212
0.052787762 0.082904816 -0.0070673577 0.09765453 -0.6902335 0.02657393 -0.17576468 -0.5770636
0.020930393 0.005613776 0.18048942 0.035980664 0.0034234172 0.13573575 -0.046921086 0.17251077
0.045757774 0.026599245 0.040734287 0.014983952 -0.0077875676 0.0008200553 -0.08905925 -0.89477605
-0.945085 -0.08015534 0.061045602 0.012185802 0.05928017 -0.051728614 0.0611015 0.037170965
-0.09381943 -0.015331104 0.09980399 0.09076126 -0.005810256 -0.013515744 -0.1313083 0.10875852
0.09692372 0.016908271 -0.029023891 -0.6004085 0.025843205 -0.5715375 0.005152229 -0.4635959
-0.8473911 0.009799863 -0.056391742 -0.124349594 -0.034592368 -0.015714027 0.08699235 -0.0012082384
-0.8677581 0.028704943 0.07981871 0.19364493 0.044472992 -0.45207316 -0.4355429 -0.030327484
-0.03348973 0.03198397 0.066445716 -0.06599807 0.15917338 -0.051305655 -0.10277852 0.31152144
0.09380347 0.06050014 -0.10995383 -0.07181748 -0.96498597 -0.07048257 0.103613414 0.1118622
-0.017576303 0.07663618 0.038240112 0.019042274 -0.0017413287 0.08156398 -0.026864752 -0.0011721328
-0.6112714 0.033742342 0.06135152 -0.07676564 -0.82393557 -0.0036228127 -1.0885057 -0.03428442
00000000: 9af3 5bbc d6c5 afbd 6f4c f63d c849 303d
00000010: c009 adbd 0786 023d 33ae 82bf 3b3a d73d
00000020: fb96 ae3c f383 04bd 5d0e a6bc 4c46 1e3c
00000030: 1bb0 96bf 3829 dc3d 4ae4 16bf d95e 153d
00000040: 6953 a83b 6cf7 d93d afc5 1fbd 153d db3d
00000050: 4c9d 803d 837e f23d afd2 ec3b 5c33 81bc
00000060: 34a1 7f3d 04ba fa3d 954e 1e3d cc33 0a3e
00000070: 8ccc 0f3c 77b3 6dbb 6a78 afb9 4346 cf3d
00000080: afa0 983c f4e4 943c 40ba 113c 0041 833d
00000090: 3f66 9a3d f3c7 83bd 079c ffbb 600a 753d
000000a0: 4905 68bf af3a 8e3d fdf8 48bd 7bfb 6d3c
000000b0: a887 0d3d d0e1 a1bc cdcb 91bd 34db d0be
000000c0: 6f9c e1bc 786f 7c3d 7b86 17bf 9ebc 5f3d
000000d0: 27d0 f63d 434e 00bc fe5c 98bd 3260 f33d
000000e0: 60bd 14bc 5ae7 3cbb 5519 9bbd 4c7c 2bbb
000000f0: 24de 863e da14 85bd 9aa5 25bf 5bba b43d
00000100: 4744 e13c 630d 6dbc f733 bbbd 0129 80bf
00000110: 2ce2 30bb e608 7c3c f4c0 c03c 1244 fa3d
00000120: 77f7 01bd 15e7 cbbb 1e37 a23c 9089 aa3c
00000130: 3fb9 ff3c b1d3 d83d e6ae 913c 60fa 65bd
00000140: e3b5 053c cd89 e2bd 6fcc 6bbd 7490 92bd
00000150: af21 673d 5da7 063e 1c8f a4bd 725e 063d
00000160: 12c3 443d 4ecf 213e 4ae4 473c bc9a 263e
00000170: 3c2f 37bd d616 733d e850 ed3e 46df 583e
00000180: 2e78 0abe 91e1 bbbd 3ba4 933a 3d14 febe
00000190: 1957 0a3d 701a 6a3d 6e79 01bd c0ec ef3d
000001a0: 80fe 703d 5ad8 a83d cae9 703e 5a34 baba
000001b0: a46b ac3c c02c 34bd bdb7 3b3d 2b45 983d
000001c0: d9f2 3b3d 71a8 f1be ae11 44bf 1d8b 71bd
000001d0: 087c 133e 62ec 28bd b665 933d b1f3 91bb
000001e0: ff10 9c3d 5206 faba 1807 93bd 3e78 5cbd
000001f0: 5bbd 10bd 571c 8cbd 008b a8bc 11ab f3bd
00000200: d2af 4abf 2416 943d 2e87 093e 98f2 6dbd
00000210: e435 69bd 1db7 c73d be09 5a3c 47c7 8b3d
00000220: 3961 40bf db94 fb3b 040f 5a3d 8c12 033e
00000230: 4fac 7c3c fba1 203d de26 5d3d de01 c9be
00000240: 949c c93c b9d8 05be 5b9e df3d 4586 633c
00000250: a40d 7e3d b31c e6bd a9b9 f1bc db73 55bf
00000260: 4ed2 bb3d b376 853d 6a4b 24bd 8739 9c3d
00000270: 1c3c 3fbf e975 f2bc 016e 113e 6d55 243e
00000280: fb37 583d 00ca a93d 4b95 e7bb 19ff c73d
00000290: 25b3 30bf 92b1 d93c a8fb 33be 71ba 13bf
000002a0: 3776 ab3c c4f3 b73b 38d2 383e 7660 133d
000002b0: 695b 603b 50fe 0a3e 5330 40bd aaa6 303e
000002c0: 816c 3b3d a9e6 d93c ffd8 263d 407f 753c
000002d0: da2e ffbb fbf8 563a b264 b6bd 0b10 65bf
000002e0: 17f1 71bf 7c28 a4bd f40a 7a3d f5a6 473c
000002f0: c3cf 723d 62e1 53bd 9145 7a3d 9540 183d
00000300: 6724 c0bd 502f 7bbc 0966 cc3d 0ae1 b93d
00000310: f663 bebb 2471 5dbc af75 06be c9bc de3d
00000320: f17f c63d 3783 8a3c 83c3 edbc 5fb4 19bf
00000330: 21b5 d33c 4850 12bf 08d4 a83b 715c edbe
00000340: a0ee 58bf 9b8f 203c 07fb 66bd 00ab febd
00000350: bab0 0dbd b4ba 80bc 0c29 b23d c15d 9eba
00000360: 6525 5ebf a126 eb3c fe77 a33d db4a 463e
00000370: 5029 363d 2276 e7be 7bff debe 5871 f8bc
00000380: 872c 09bd a001 033d b114 883d ff29 87bd
00000390: 59fe 223e e125 52bd 8b7d d2bd bd7f 9f3e
000003a0: 091c c03d ffce 773d 792f e1bd 0b15 93bd
000003b0: 5209 77bf 2a59 90bd 4533 d43d 0218 e53d
000003c0: 2efc 8fbc 6ef3 9c3d aaa1 1c3d 8bfe 9b3c
000003d0: 4c3d e4ba 040b a73d 7813 dcbc 40a2 99ba
000003e0: 487c 1cbf 6935 0a3d bb4b 7b3d 4e37 9dbd
000003f0: 71ed 52bf b66c 6dbb 2854 8bbf d26d 0cbd

advantage_model.2.bias f4 [4]
0.07352778 -0.06908211 0.09770479 -0.05995675
00000000: bc95 963d ec7a 8dbd 7319 c83d 3695 75bd
